_________________________________________________________________
Layer (type)                 Output Shape              Param #   
=================================================================
input_3 (InputLayer)         (None, 90)                0         
_________________________________________________________________
dense_13 (Dense)             (None, 64)                5824      
_________________________________________________________________
batch_normalization_11 (Batc (None, 64)                256       
_________________________________________________________________
leaky_re_lu_11 (LeakyReLU)   (None, 64)                0         
_________________________________________________________________
dense_14 (Dense)             (None, 32)                2080      
_________________________________________________________________
batch_normalization_12 (Batc (None, 32)                128       
_________________________________________________________________
leaky_re_lu_12 (LeakyReLU)   (None, 32)                0         
_________________________________________________________________
dense_15 (Dense)             (None, 16)                528       
_________________________________________________________________
batch_normalization_13 (Batc (None, 16)                64        
_________________________________________________________________
leaky_re_lu_13 (LeakyReLU)   (None, 16)                0         
_________________________________________________________________
dense_16 (Dense)             (None, 8)                 136       
_________________________________________________________________
batch_normalization_14 (Batc (None, 8)                 32        
_________________________________________________________________
leaky_re_lu_14 (LeakyReLU)   (None, 8)                 0         
_________________________________________________________________
dense_18 (Dense)             (None, 1)                 9         
=================================================================
Total params: 9,057
Trainable params: 8,817
Non-trainable params: 240
_________________________________________________________________


Bessaker large
Training simple network with 500 samples
Features: 90
Optimizer: adam
Dropoutrate: 0
Trained 2000 epochs
mean_absolute_error test evaluation
[4.387226954201199, 4.387226954201199]
…
