__________________________________________________________________________________________________
Layer (type)                    Output Shape         Param #     Connected to                     
==================================================================================================
input_1 (InputLayer)            (None, 79)           0                                            
__________________________________________________________________________________________________
dense_1 (Dense)                 (None, 32)           2560        input_1[0][0]                    
__________________________________________________________________________________________________
dense_6 (Dense)                 (None, 128)          10240       input_1[0][0]                    
__________________________________________________________________________________________________
dense_19 (Dense)                (None, 32)           2560        input_1[0][0]                    
__________________________________________________________________________________________________
dense_24 (Dense)                (None, 64)           5120        input_1[0][0]                    
__________________________________________________________________________________________________
dense_33 (Dense)                (None, 69)           5520        input_1[0][0]                    
__________________________________________________________________________________________________
batch_normalization_1 (BatchNor (None, 32)           128         dense_1[0][0]                    
__________________________________________________________________________________________________
batch_normalization_5 (BatchNor (None, 128)          512         dense_6[0][0]                    
__________________________________________________________________________________________________
batch_normalization_15 (BatchNo (None, 32)           128         dense_19[0][0]                   
__________________________________________________________________________________________________
batch_normalization_19 (BatchNo (None, 64)           256         dense_24[0][0]                   
__________________________________________________________________________________________________
batch_normalization_26 (BatchNo (None, 69)           276         dense_33[0][0]                   
__________________________________________________________________________________________________
leaky_re_lu_1 (LeakyReLU)       (None, 32)           0           batch_normalization_1[0][0]      
__________________________________________________________________________________________________
leaky_re_lu_5 (LeakyReLU)       (None, 128)          0           batch_normalization_5[0][0]      
__________________________________________________________________________________________________
leaky_re_lu_15 (LeakyReLU)      (None, 32)           0           batch_normalization_15[0][0]     
__________________________________________________________________________________________________
leaky_re_lu_19 (LeakyReLU)      (None, 64)           0           batch_normalization_19[0][0]     
__________________________________________________________________________________________________
leaky_re_lu_26 (LeakyReLU)      (None, 69)           0           batch_normalization_26[0][0]     
__________________________________________________________________________________________________
dense_2 (Dense)                 (None, 16)           528         leaky_re_lu_1[0][0]              
__________________________________________________________________________________________________
dense_7 (Dense)                 (None, 64)           8256        leaky_re_lu_5[0][0]              
__________________________________________________________________________________________________
dense_11 (Dense)                (None, 64)           5120        input_1[0][0]                    
__________________________________________________________________________________________________
dense_15 (Dense)                (None, 16)           1280        input_1[0][0]                    
__________________________________________________________________________________________________
dense_20 (Dense)                (None, 16)           528         leaky_re_lu_15[0][0]             
__________________________________________________________________________________________________
dense_25 (Dense)                (None, 64)           4160        leaky_re_lu_19[0][0]             
__________________________________________________________________________________________________
dense_29 (Dense)                (None, 12)           960         input_1[0][0]                    
__________________________________________________________________________________________________
dense_34 (Dense)                (None, 128)          8960        leaky_re_lu_26[0][0]             
__________________________________________________________________________________________________
batch_normalization_2 (BatchNor (None, 16)           64          dense_2[0][0]                    
__________________________________________________________________________________________________
batch_normalization_6 (BatchNor (None, 64)           256         dense_7[0][0]                    
__________________________________________________________________________________________________
batch_normalization_9 (BatchNor (None, 64)           256         dense_11[0][0]                   
__________________________________________________________________________________________________
batch_normalization_12 (BatchNo (None, 16)           64          dense_15[0][0]                   
__________________________________________________________________________________________________
batch_normalization_16 (BatchNo (None, 16)           64          dense_20[0][0]                   
__________________________________________________________________________________________________
batch_normalization_20 (BatchNo (None, 64)           256         dense_25[0][0]                   
__________________________________________________________________________________________________
batch_normalization_23 (BatchNo (None, 12)           48          dense_29[0][0]                   
__________________________________________________________________________________________________
batch_normalization_27 (BatchNo (None, 128)          512         dense_34[0][0]                   
__________________________________________________________________________________________________
leaky_re_lu_2 (LeakyReLU)       (None, 16)           0           batch_normalization_2[0][0]      
__________________________________________________________________________________________________
leaky_re_lu_6 (LeakyReLU)       (None, 64)           0           batch_normalization_6[0][0]      
__________________________________________________________________________________________________
leaky_re_lu_9 (LeakyReLU)       (None, 64)           0           batch_normalization_9[0][0]      
__________________________________________________________________________________________________
leaky_re_lu_12 (LeakyReLU)      (None, 16)           0           batch_normalization_12[0][0]     
__________________________________________________________________________________________________
leaky_re_lu_16 (LeakyReLU)      (None, 16)           0           batch_normalization_16[0][0]     
__________________________________________________________________________________________________
leaky_re_lu_20 (LeakyReLU)      (None, 64)           0           batch_normalization_20[0][0]     
__________________________________________________________________________________________________
leaky_re_lu_23 (LeakyReLU)      (None, 12)           0           batch_normalization_23[0][0]     
__________________________________________________________________________________________________
leaky_re_lu_27 (LeakyReLU)      (None, 128)          0           batch_normalization_27[0][0]     
__________________________________________________________________________________________________
dense_3 (Dense)                 (None, 8)            136         leaky_re_lu_2[0][0]              
__________________________________________________________________________________________________
dense_8 (Dense)                 (None, 32)           2080        leaky_re_lu_6[0][0]              
__________________________________________________________________________________________________
dense_12 (Dense)                (None, 16)           1040        leaky_re_lu_9[0][0]              
__________________________________________________________________________________________________
dense_16 (Dense)                (None, 8)            136         leaky_re_lu_12[0][0]             
__________________________________________________________________________________________________
dense_21 (Dense)                (None, 8)            136         leaky_re_lu_16[0][0]             
__________________________________________________________________________________________________
dense_26 (Dense)                (None, 32)           2080        leaky_re_lu_20[0][0]             
__________________________________________________________________________________________________
dense_30 (Dense)                (None, 6)            78          leaky_re_lu_23[0][0]             
__________________________________________________________________________________________________
dense_35 (Dense)                (None, 32)           4128        leaky_re_lu_27[0][0]             
__________________________________________________________________________________________________
batch_normalization_3 (BatchNor (None, 8)            32          dense_3[0][0]                    
__________________________________________________________________________________________________
batch_normalization_7 (BatchNor (None, 32)           128         dense_8[0][0]                    
__________________________________________________________________________________________________
batch_normalization_10 (BatchNo (None, 16)           64          dense_12[0][0]                   
__________________________________________________________________________________________________
batch_normalization_13 (BatchNo (None, 8)            32          dense_16[0][0]                   
__________________________________________________________________________________________________
batch_normalization_17 (BatchNo (None, 8)            32          dense_21[0][0]                   
__________________________________________________________________________________________________
batch_normalization_21 (BatchNo (None, 32)           128         dense_26[0][0]                   
__________________________________________________________________________________________________
batch_normalization_24 (BatchNo (None, 6)            24          dense_30[0][0]                   
__________________________________________________________________________________________________
batch_normalization_28 (BatchNo (None, 32)           128         dense_35[0][0]                   
__________________________________________________________________________________________________
leaky_re_lu_3 (LeakyReLU)       (None, 8)            0           batch_normalization_3[0][0]      
__________________________________________________________________________________________________
leaky_re_lu_7 (LeakyReLU)       (None, 32)           0           batch_normalization_7[0][0]      
__________________________________________________________________________________________________
leaky_re_lu_10 (LeakyReLU)      (None, 16)           0           batch_normalization_10[0][0]     
__________________________________________________________________________________________________
leaky_re_lu_13 (LeakyReLU)      (None, 8)            0           batch_normalization_13[0][0]     
__________________________________________________________________________________________________
leaky_re_lu_17 (LeakyReLU)      (None, 8)            0           batch_normalization_17[0][0]     
__________________________________________________________________________________________________
leaky_re_lu_21 (LeakyReLU)      (None, 32)           0           batch_normalization_21[0][0]     
__________________________________________________________________________________________________
leaky_re_lu_24 (LeakyReLU)      (None, 6)            0           batch_normalization_24[0][0]     
__________________________________________________________________________________________________
leaky_re_lu_28 (LeakyReLU)      (None, 32)           0           batch_normalization_28[0][0]     
__________________________________________________________________________________________________
dense_4 (Dense)                 (None, 2)            18          leaky_re_lu_3[0][0]              
__________________________________________________________________________________________________
dense_9 (Dense)                 (None, 8)            264         leaky_re_lu_7[0][0]              
__________________________________________________________________________________________________
dense_13 (Dense)                (None, 6)            102         leaky_re_lu_10[0][0]             
__________________________________________________________________________________________________
dense_17 (Dense)                (None, 8)            72          leaky_re_lu_13[0][0]             
__________________________________________________________________________________________________
dense_22 (Dense)                (None, 2)            18          leaky_re_lu_17[0][0]             
__________________________________________________________________________________________________
dense_27 (Dense)                (None, 16)           528         leaky_re_lu_21[0][0]             
__________________________________________________________________________________________________
dense_31 (Dense)                (None, 3)            21          leaky_re_lu_24[0][0]             
__________________________________________________________________________________________________
dense_36 (Dense)                (None, 4)            132         leaky_re_lu_28[0][0]             
__________________________________________________________________________________________________
batch_normalization_4 (BatchNor (None, 2)            8           dense_4[0][0]                    
__________________________________________________________________________________________________
batch_normalization_8 (BatchNor (None, 8)            32          dense_9[0][0]                    
__________________________________________________________________________________________________
batch_normalization_11 (BatchNo (None, 6)            24          dense_13[0][0]                   
__________________________________________________________________________________________________
batch_normalization_14 (BatchNo (None, 8)            32          dense_17[0][0]                   
__________________________________________________________________________________________________
batch_normalization_18 (BatchNo (None, 2)            8           dense_22[0][0]                   
__________________________________________________________________________________________________
batch_normalization_22 (BatchNo (None, 16)           64          dense_27[0][0]                   
__________________________________________________________________________________________________
batch_normalization_25 (BatchNo (None, 3)            12          dense_31[0][0]                   
__________________________________________________________________________________________________
batch_normalization_29 (BatchNo (None, 4)            16          dense_36[0][0]                   
__________________________________________________________________________________________________
leaky_re_lu_4 (LeakyReLU)       (None, 2)            0           batch_normalization_4[0][0]      
__________________________________________________________________________________________________
leaky_re_lu_8 (LeakyReLU)       (None, 8)            0           batch_normalization_8[0][0]      
__________________________________________________________________________________________________
leaky_re_lu_11 (LeakyReLU)      (None, 6)            0           batch_normalization_11[0][0]     
__________________________________________________________________________________________________
leaky_re_lu_14 (LeakyReLU)      (None, 8)            0           batch_normalization_14[0][0]     
__________________________________________________________________________________________________
leaky_re_lu_18 (LeakyReLU)      (None, 2)            0           batch_normalization_18[0][0]     
__________________________________________________________________________________________________
leaky_re_lu_22 (LeakyReLU)      (None, 16)           0           batch_normalization_22[0][0]     
__________________________________________________________________________________________________
leaky_re_lu_25 (LeakyReLU)      (None, 3)            0           batch_normalization_25[0][0]     
__________________________________________________________________________________________________
leaky_re_lu_29 (LeakyReLU)      (None, 4)            0           batch_normalization_29[0][0]     
__________________________________________________________________________________________________
dense_5 (Dense)                 (None, 1)            3           leaky_re_lu_4[0][0]              
__________________________________________________________________________________________________
dense_10 (Dense)                (None, 1)            9           leaky_re_lu_8[0][0]              
__________________________________________________________________________________________________
dense_14 (Dense)                (None, 1)            7           leaky_re_lu_11[0][0]             
__________________________________________________________________________________________________
dense_18 (Dense)                (None, 1)            9           leaky_re_lu_14[0][0]             
__________________________________________________________________________________________________
dense_23 (Dense)                (None, 1)            3           leaky_re_lu_18[0][0]             
__________________________________________________________________________________________________
dense_28 (Dense)                (None, 1)            17          leaky_re_lu_22[0][0]             
__________________________________________________________________________________________________
dense_32 (Dense)                (None, 1)            4           leaky_re_lu_25[0][0]             
__________________________________________________________________________________________________
dense_37 (Dense)                (None, 1)            5           leaky_re_lu_29[0][0]             
__________________________________________________________________________________________________
average_1 (Average)             (None, 1)            0           dense_5[0][0]                    
                                                                 dense_10[0][0]                   
                                                                 dense_14[0][0]                   
                                                                 dense_18[0][0]                   
                                                                 dense_23[0][0]                   
…
