_________________________________________________________________
Layer (type)                 Output Shape              Param #   
=================================================================
input_1 (InputLayer)         (None, 71)                0         
_________________________________________________________________
dense_1 (Dense)              (None, 128)               9216      
_________________________________________________________________
batch_normalization_1 (Batch (None, 128)               512       
_________________________________________________________________
leaky_re_lu_1 (LeakyReLU)    (None, 128)               0         
_________________________________________________________________
dense_2 (Dense)              (None, 64)                8256      
_________________________________________________________________
dropout_1 (Dropout)          (None, 64)                0         
_________________________________________________________________
batch_normalization_2 (Batch (None, 64)                256       
_________________________________________________________________
leaky_re_lu_2 (LeakyReLU)    (None, 64)                0         
_________________________________________________________________
dense_3 (Dense)              (None, 32)                2080      
_________________________________________________________________
batch_normalization_3 (Batch (None, 32)                128       
_________________________________________________________________
leaky_re_lu_3 (LeakyReLU)    (None, 32)                0         
_________________________________________________________________
dense_4 (Dense)              (None, 16)                528       
_________________________________________________________________
batch_normalization_4 (Batch (None, 16)                64        
_________________________________________________________________
leaky_re_lu_4 (LeakyReLU)    (None, 16)                0         
_________________________________________________________________
dense_5 (Dense)              (None, 8)                 136       
_________________________________________________________________
batch_normalization_5 (Batch (None, 8)                 32        
_________________________________________________________________
leaky_re_lu_5 (LeakyReLU)    (None, 8)                 0         
_________________________________________________________________
dense_6 (Dense)              (None, 1)                 9         
=================================================================
Total params: 21,217
Trainable params: 20,721
Non-trainable params: 496
_________________________________________________________________


Bessaker Vindpark
Regular network, dataset advanced
Features: 71
Optimizer: adam
Dropoutrate: 0.15
Trained 5000 epochs
mean_absolute_error test evaluation
[3.531413790773508, 3.531413790773508]
